…
"output_type":"stream","text":["Model: \"model\"\n","__________________________________________________________________________________________________\n","Layer (type)                    Output Shape         Param #     Connected to                     \n","==================================================================================================\n","input_1 (InputLayer)            [(None, 64, 64, 3)]  0                                            \n","__________________________________________________________________________________________________\n","conv2d (Conv2D)                 (None, 64, 64, 32)   896         input_1[0][0]                    \n","__________________________________________________________________________________________________\n","batch_normalization (BatchNorma (None, 64, 64, 32)   128         conv2d[0][0]                     \n","__________________________________________________________________________________________________\n","activation (Activation)         (None, 64, 64, 32)   0           batch_normalization[0][0]        \n","__________________________________________________________________________________________________\n","conv2d_1 (Conv2D)               (None, 64, 64, 128)  36992       activation[0][0]                 \n","__________________________________________________________________________________________________\n","batch_normalization_1 (BatchNor (None, 64, 64, 128)  512         conv2d_1[0][0]                   \n","__________________________________________________________________________________________________\n","activation_1 (Activation)       (None, 64, 64, 128)  0           batch_normalization_1[0][0]      \n","__________________________________________________________________________________________________\n","conv2d_2 (Conv2D)               (None, 64, 64, 128)  147584      activation_1[0][0]               \n","__________________________________________________________________________________________________\n","batch_normalization_2 (BatchNor (None, 64, 64, 128)  512         conv2d_2[0][0]                   \n","__________________________________________________________________________________________________\n","activation_2 (Activation)       (None, 64, 64, 128)  0           batch_normalization_2[0][0]      \n","__________________________________________________________________________________________________\n","conv2d_3 (Conv2D)               (None, 64, 64, 128)  147584      activation_2[0][0]               \n","__________________________________________________________________________________________________\n","batch_normalization_3 (BatchNor (None, 64, 64, 128)  512         conv2d_3[0][0]                   \n","__________________________________________________________________________________________________\n","activation_3 (Activation)       (None, 64, 64, 128)  0           batch_normalization_3[0][0]      \n","__________________________________________________________________________________________________\n","conv2d_4 (Conv2D)               (None, 64, 64, 128)  147584      activation_3[0][0]               \n","__________________________________________________________________________________________________\n","batch_normalization_4 (BatchNor (None, 64, 64, 128)  512         conv2d_4[0][0]                   \n","__________________________________________________________________________________________________\n","activation_4 (Activation)       (None, 64, 64, 128)  0           batch_normalization_4[0][0]      \n","__________________________________________________________________________________________________\n","concatenate (Concatenate)       (None, 64, 64, 160)  0           activation[0][0]                 \n","                                                                 activation_4[0][0]               \n","__________________________________________________________________________________________________\n","batch_normalization_5 (BatchNor (None, 64, 64, 160)  640         concatenate[0][0]                \n","__________________________________________________________________________________________________\n","activation_5 (Activation)       (None, 64, 64, 160)  0           batch_normalization_5[0][0]      \n","__________________________________________________________________________________________________\n","max_pooling2d (MaxPooling2D)    (None, 32, 32, 160)  0           activation_5[0][0]               \n","__________________________________________________________________________________________________\n","conv2d_5 (Conv2D)               (None, 32, 32, 256)  368896      max_pooling2d[0][0]              \n","__________________________________________________________________________________________________\n","batch_normalization_6 (BatchNor (None, 32, 32, 256)  1024        conv2d_5[0][0]                   \n","__________________________________________________________________________________________________\n","activation_6 (Activation)       (None, 32, 32, 256)  0           batch_normalization_6[0][0]      \n","__________________________________________________________________________________________________\n","conv2d_6 (Conv2D)               (None, 32, 32, 256)  590080      activation_6[0][0]               \n","__________________________________________________________________________________________________\n","batch_normalization_7 (BatchNor (None, 32, 32, 256)  1024        conv2d_6[0][0]                   \n","__________________________________________________________________________________________________\n","activation_7 (Activation)       (None, 32, 32, 256)  0           batch_normalization_7[0][0]      \n","__________________________________________________________________________________________________\n","conv2d_7 (Conv2D)               (None, 32, 32, 256)  590080      activation_7[0][0]               \n","__________________________________________________________________________________________________\n","batch_normalization_8 (BatchNor (None, 32, 32, 256)  1024        conv2d_7[0][0]                   \n","__________________________________________________________________________________________________\n","activation_8 (Activation)       (None, 32, 32, 256)  0           batch_normalization_8[0][0]      \n","__________________________________________________________________________________________________\n","conv2d_8 (Conv2D)               (None, 32, 32, 256)  590080      activation_8[0][0]               \n","__________________________________________________________________________________________________\n","batch_normalization_9 (BatchNor (None, 32, 32, 256)  1024        conv2d_8[0][0]                   \n","__________________________________________________________________________________________________\n","activation_9 (Activation)       (None, 32, 32, 256)  0           batch_normalization_9[0][0]      \n","__________________________________________________________________________________________________\n","concatenate_1 (Concatenate)     (None, 32, 32, 416)  0           max_pooling2d[0][0]              \n","                                                                 activation_9[0][0]               \n","__________________________________________________________________________________________________\n","batch_normalization_10 (BatchNo (None, 32, 32, 416)  1664        concatenate_1[0][0]              \n","__________________________________________________________________________________________________\n","activation_10 (Activation)      (None, 32, 32, 416)  0           batch_normalization_10[0][0]     \n","__________________________________________________________________________________________________\n","max_pooling2d_1 (MaxPooling2D)  (None, 16, 16, 416)  0           activation_10[0][0]              \n","__________________________________________________________________________________________________\n","conv2d_9 (Conv2D)               (None, 16, 16, 512)  1917440     max_pooling2d_1[0][0]            \n","__________________________________________________________________________________________________\n","batch_normalization_11 (BatchNo (None, 16, 16, 512)  2048        conv2d_9[0][0]                   \n","__________________________________________________________________________________________________\n","activation_11 (Activation)      (None, 16, 16, 512)  0           batch_normalization_11[0][0]     \n","__________________________________________________________________________________________________\n","conv2d_10 (Conv2D)              (None, 16, 16, 512)  2359808     activation_11[0][0]              \n","__________________________________________________________________________________________________\n","batch_normalization_12 (BatchNo (None, 16, 16, 512)  2048        conv2d_10[0][0]                  \n","__________________________________________________________________________________________________\n","activation_12 (Activation)      (None, 16, 16, 512)  0           batch_normalization_12[0][0]     \n","__________________________________________________________________________________________________\n","conv2d_11 (Conv2D)              (None, 16, 16, 512)  2359808     activation_12[0][0]              \n","__________________________________________________________________________________________________\n","batch_normalization_13 (BatchNo (None, 16, 16, 512)  2048        conv2d_11[0][0]                  \n","__________________________________________________________________________________________________\n","activation_13 (Activation)      (None, 16, 16, 512)  0           batch_normalization_13[0][0]     \n","__________________________________________________________________________________________________\n","conv2d_12 (Conv2D)              (None, 16, 16, 512)  2359808     activation_13[0][0]              \n","__________________________________________________________________________________________________\n","batch_normalization_14 (BatchNo (None, 16, 16, 512)  2048        conv2d_12[0][0]                  \n","__________________________________________________________________________________________________\n","activation_14 (Activation)      (None, 16, 16, 512)  0           batch_normalization_14[0][0]     \n","__________________________________________________________________________________________________\n","concatenate_2 (Concatenate)     (None, 16, 16, 928)  0           max_pooling2d_1[0][0]            \n","                                                                 activation_14[0][0]              \n","__________________________________________________________________________________________________\n","batch_normalization_15 (BatchNo (None, 16, 16, 928)  3712        concatenate_2[0][0]              \n","__________________________________________________________________________________________________\n","activation_15 (Activation)      (None, 16, 16, 928)  0           batch_normalization_15[0][0]     \n","__________________________________________________________________________________________________\n","max_pooling2d_2 (MaxPooling2D)  (None, 8, 8, 928)    0           activation_15[0][0]              \n","__________________________________________________________________________________________________\n","conv2d_13 (Conv2D)              (None, 8, 8, 200)    185800      max_pooling2d_2[0][0]            \n","__________________________________________________________________________________________________\n","global_average_pooling2d (Globa (None, 200)          0           conv2d_13[0][0]                  \n","__________________________________________________________________________________________________\n","activation_16 (Activation)      (None, 200)          0           global_average_pooling2d[0][0]   \n","==================================================================================================\n","Total params: 11,822,920\n","Trainable params: 11,812,680\n","Non-trainable params: 10,240\n","__________________________________________________________________________________________________\n"],"name":"stdout"}]},{"cell_type":"markdown","metada
…
